w0.npy (npy, 456 bytes, 1 tensors)

array f8 [41]
0	0xbfd69b751854a78f	-0.35323836685221804
1	0xbfd69b757e58588f	-0.3532384618605499
2	0xbfada5e5ef066d32	-0.0579063276556674
3	0x3fcb28b9f1668a03	0.2121803692544547
4	0x3fd95b5590a2ed21	0.39619959950114675
5	0x3f93f0c775f0cfb0	0.019473187039878048
6	0xc04578ebd79728ca	-42.94469733124568
7	0xbf44e51cd323d941	-0.0006376639123846576
8	0xbfd43cb2df63b274	-0.3162047559297101
9	0xc037b1a7b5e0b304	-23.69396530853102
10	0x40222b134c8dad7f	9.084131614966052
11	0xbfcda9a9c34c20f4	-0.23174020801548745
12	0x4036bde87838d038	22.741828454847763
13	0xbff0bfc7b142b74f	-1.046821300911194
14	0x3fc45cab6714e557	0.15907804997713512
15	0x40421b534e4662e1	36.21347979008511
16	0x3fe2c58a9092ead9	0.5866139243801981
17	0x3fab23f7f63b29ff	0.053008793647297374
18	0xbfef08162a7c0f74	-0.9697371320512347
19	0xbf82e060129be2d4	-0.009217024391078445
20	0x3fcee39743679c60	0.24132052222487044
21	0xbfd69b7557f0d523	-0.35323842609371264
22	0x3f827a51736f93a5	0.009022365889856785
23	0xbfb69949fd886ed0	-0.08827650489586891
24	0xbfa0eb1c16cfbb39	-0.03304374483547296
25	0x3f89fac4cfab766f	0.012685334765986071
26	0xc037b3d59f02f1c2	-23.70247834989437
27	0xbf5027a1d257f5a0	-0.0009860115327450028
28	0xbfac15f583637a10	-0.05485503414978521
29	0xc03396bea769cc52	-19.5888466485306
30	0x401ac266847f4d9d	6.6898441984843915
31	0x3fc8b46c5a0b731b	0.1930060805961141
32	0x4030a568f6349a14	16.64613283905244
33	0xbfe8751eb46466fe	-0.7642968676838959
34	0x3fd0c360e1403458	0.26192495343349753
35	0x403a8b2ebafccd6f	26.543681799620966
36	0x3fdc27f9d3acec99	0.43993993445810414
37	0xbf87b83119ed92c4	-0.011581786731491468
38	0xbfe822bc2b38430c	-0.7542401165138428
39	0xbf4f0e561abc126d	-0.0009477539474294757
40	0xbfc519ff488b18ae	-0.16485587160258802
