w1.npy (npy, 1056 bytes, 1 tensors)

array f8 [116]
000000 4d 8b aa 07 90 bb da 3f 7f 8e bb c6 a0 b9 da 3f
       0.4176979136338346 0.41757983596310305
000010 23 04 61 3b 55 5b d7 bf 6d c3 8a 86 0f b4 d0 3f
       -0.36494952009894827 0.26099002970572976
000020 31 14 ba 8d 19 87 ac bf ec be 4f 67 94 cd b1 3f
       -0.055718229818957694 0.06954314729932393
000030 a4 5d da 65 6b 21 f7 bf ba b1 00 7b b1 3d a3 3f
       -1.445659063208816 0.03758005739686916
000040 d9 63 be c1 71 02 ba bf 9c c3 b2 74 18 9b 1e 40
       -0.10159979801245757 7.6514604791745136
000050 ea 10 2b 36 85 c0 1a c0 9d 74 e0 eb 4d 57 e5 bf
       -6.688008161905808 -0.6669072730034206
000060 9a c4 20 2b 17 31 25 40 2e f8 92 2c c0 6c d5 bf
       10.595879886388776 -0.33476261475505253
000070 3a 33 f8 84 9d f2 a1 bf 51 55 cf 20 15 49 31 40
       -0.03505413292086819 17.285478640192483
000080 16 9a 2b 51 dd 86 e7 bf 64 e0 e7 f1 69 5a 9b bf
       -0.7352129540784655 -0.026712088956600502
000090 f3 6f 4f 33 cd 69 b4 bf b9 af 57 cc 4f ed 91 bf
       -0.07973940375035209 -0.017506834837987848
0000a0 dc d4 f1 05 c1 be ba bf 16 59 d7 f6 e1 41 34 c0
       -0.10447317500241432 -20.25735419042129
0000b0 90 ea 0e a4 c9 3e d0 3f 4c e7 bb f6 fc 00 be bf
       0.2538322546130667 -0.11720257781771898
0000c0 16 16 61 27 ec bb da 3f 8c 59 b6 4b 97 dd b3 3f
       0.4177198776781962 0.07759996031231803
0000d0 70 1e d0 2b 50 4a bf 3f 8c b2 33 a6 3f 65 d2 3f
       0.12222767896320774 0.287429725939355
0000e0 45 39 5f bd 5f ac ad bf b6 c6 40 e9 a2 c6 f2 3f
       -0.057955734125800386 1.1734952079245153
0000f0 e8 14 a0 42 9a ae 99 bf ce 03 05 72 a1 4c b1 3f
       -0.02508011848114658 0.0675755408638132
000100 43 52 2a 30 eb 31 09 c0 9b 89 27 3b 42 e3 11 40
       -3.1493743670382925 4.471932338989428
000110 14 c1 ba dc 06 a0 e2 3f 53 ba 49 c1 59 e7 1b c0
       0.5820345221636978 -6.9759283257722755
000120 97 c6 50 ca 48 ff c3 3f ad 4f 89 84 50 1f d0 3f
       0.1562281597012329 0.25191128676419333
000130 6d ac 1c 93 c5 5c 26 c0 f9 aa e5 1c fc 1c e8 3f
       -11.181194875002086 0.753538185538985
000140 f1 85 f4 5f b7 0d b7 3f 23 fd b5 ec 7a 4f a2 3f
       0.0900530442491101 0.03576263560807493
000150 fd c9 81 22 af ad 44 bf a2 24 aa 62 09 68 b1 3f
       -0.0006310563230854102 0.0679937234764503
000160 79 23 f1 b6 c1 bd 27 40 40 1b 3e 8c 29 11 d2 bf
       11.87061855023943 -0.28229750342909554
000170 43 80 5e 58 f3 b8 a4 3f 23 41 c0 24 ed bb da 3f
       0.04047356084561262 0.41772011364902734
000180 f5 9d 88 a5 b2 fc 71 3f cb 2b fa b2 ca 77 c5 bf
       0.004391382063239292 -0.16771825541613192
000190 62 5a 22 45 5f 63 bb bf a7 fb 97 a1 b9 be 89 3f
       -0.1069850486549995 0.012570810550639978
0001a0 58 27 3e d2 6b d5 e6 bf 01 c4 e4 94 de d7 c4 bf
       -0.7135523897461367 -0.16283781309314807
0001b0 e9 48 4c f2 da 95 87 bf 48 8c c5 e3 ba d2 05 c0
       -0.01151629497465874 -2.7278955263769014
0001c0 30 a7 8c 97 b3 38 cc bf b0 ba 64 a2 4a 2e d0 bf
       -0.22048039340853043 -0.2528254114030615
0001d0 55 7b e5 38 6c 36 d6 bf 29 81 9c e1 8b dc 9b 3f
       -0.34707170063295695 0.02720850529215216
0001e0 be 91 29 e9 29 7a cb bf 31 ff 7a 9e a3 c2 e5 bf
       -0.21466564068681565 -0.6800096602746405
0001f0 c5 b6 3e f5 fb 9c cf bf 09 4c 9e 02 0c 4a b0 bf
       -0.24697827792026864 -0.06362986625599389
000200 6f 43 a6 04 99 65 96 bf e6 31 1e 69 7f 02 62 3f
       -0.02187193957212535 0.002198456620084099
000210 cc 90 e5 22 8e 3b a4 3f a0 5b f2 fa d9 9a fd 3f
       0.0395168702696381 1.8503055384260065
000220 bd 74 6f 43 2f bc b1 3f d7 c1 b4 f6 d0 f1 b1 bf
       0.06927771946307622 -0.07009607337091182
000230 d6 ec c3 ff ee bb da 3f e3 b7 30 11 4e 39 5b bf
       0.4177205560406042 -0.0016616117834575776
000240 60 72 2a 1e 0d 60 a4 3f 49 a0 ec b9 53 34 8b 3f
       0.039795312816953254 0.013283399688205704
000250 c4 47 e6 5a 3c 2a 52 bf f1 2b be 7f 8a 4a d7 3f
       -0.0011087026028673156 0.3639246222962234
000260 46 e6 4d d3 4b b8 b6 3f 24 10 38 2a 6b f0 46 3f
       0.08874963673397315 0.0007000468507958363
000270 94 98 48 66 b4 ec 1a 40 e2 ab 0e 01 14 f1 0b c0
       6.731156919651898 -3.4927139361002313
000280 86 02 14 6d 6e 46 a9 3f 78 9b ec 83 4d 98 1b 40
       0.049365473571019655 6.898733197513927
000290 17 0e 6c c4 50 5d c8 bf ff 34 a1 f4 c4 f9 ae 3f
       -0.19034776297495234 0.06049933897211623
0002a0 9f ba 89 ef 50 23 26 40 59 33 50 6a 11 18 e2 bf
       11.068976865351315 -0.5654379917556113
0002b0 68 06 93 00 6f c2 89 3f 95 79 15 0c e1 91 95 bf
       0.012577883915926694 -0.021064297068159005
0002c0 08 48 a8 52 97 ca 31 bf e0 78 b9 2d 31 95 d2 3f
       -0.0002714747849107417 0.29035596337588565
0002d0 c1 26 4c 16 13 26 29 c0 db 2a d9 59 1a 4c c8 3f
       -12.574364373012374 0.1898224772179081
0002e0 6f 73 92 7d ff 45 d2 bf 20 86 03 fb ee bb da 3f
       -0.28552233946702804 0.41772055161536237
0002f0 00 32 61 82 c3 ab 14 3f 28 fd 88 bb 19 ef 65 bf
       7.885342401543066e-05 -0.00267748857393681
000300 fc ec e2 05 be 78 41 bf 64 c9 46 30 32 c2 94 3e
       -0.0005331924292230335 3.0932692165609275e-07
000310 36 3a 72 6c fa 62 c3 bf 2f 01 03 06 26 52 88 bf
       -0.15145807547783513 -0.011875435884917877
000320 9f 71 62 29 0f 55 ef be 93 57 f2 b4 bc 1c 21 c0
       -1.4940387057565267e-05 -8.556127218802237
000330 41 3a 36 8a c1 b0 17 40 9c 9f e4 eb 6a c9 6a bf
       5.9226132960889695 -0.003269871550532556
000340 c3 a4 39 a6 99 9b 26 c0 ba f4 47 2b 67 eb d4 3f
       -11.303906626259396 0.32686785914104244
000350 8c d9 07 74 cc 85 75 bf 63 7e 65 5d 2c df 31 c0
       -0.005254553456771293 -17.871770703581557
000360 50 8b 96 19 33 c1 f6 3f 15 14 42 10 ed 5b 49 bf
       1.4221678733381005 -0.0007738978897725591
000370 43 27 aa cc 48 d3 b5 3f 6a fa ac e5 38 32 e4 3e
       0.08525519367881622 9.630289402926337e-06
000380 84 e0 e9 d0 1b f5 f6 3f b5 b5 5c 39 bc 76 32 40
       1.4348409805952835 18.463809571394183
000390 74 d2 37 ff e8 40 da bf d9 55 8c 82 11 f6 f6 bf
       -0.41021180080068764 -1.4350752925432657
