w2.npy (npy, 616 bytes, 1 tensors)

array f8 [61]
-15.982714220552444 -16.083169131926187 -0.2863452187415041 0.26562321253721155 0.2566686409786115 -0.24096745990157645 -186.40694527107775 -0.041065172234931314
12.759892526038577 1730.2766195102301 -0.0184932421425723 150.69736445092258 -103.37836527277322 -445.5988435161775 -1694.4128891126318 -151.0408812515773
247.57298866254433 5.779127812199651 -151.16969484902796 239.86621409376514 -1.1133549569336856 0.06873389020964371 12.91683386035867 0.07640578632495101
418.8656598412017 -120.48970268367108 4.747454418559917 418.67589595392104 -84.44825660339367 11.433350246590626 -569.5682034304527 -16.054728706189643
0.0674888056526191 -0.11110620770566276 -0.036735162312389685 -0.06783756211156307 -212.60645613418916 0.0015751619846535094 14.457257243924865 1977.9187533752643
-0.2581116689033708 0.019941925475654824 -127.81343055227799 -480.7895771045499 -1832.9025881971363 0.14813428692207214 269.6430849728517 6.326039334870354
0.27449115834761834 261.0850614076281 -0.9098816887111926 0.07203727810375901 14.03485937167585 0.00039823390834624377 0.02687847208572032 -131.01569618469335
5.372947360989579 0.0806498173424639 -91.91493720039398 12.187308447487528 -0.019343811897166687
00000000: 7b2c 7d51 26f7 2fc0 e1a8 7d92 4a15 30c0
00000010: 2416 77e5 7a53 d2bf 50f8 b980 f8ff d03f
00000020: 995c ba4e 426d d03f 15b7 d68f 05d8 cebf
00000030: 4ed1 16b2 054d 67c0 bddc 8187 7e06 a5bf
00000040: fc9e 17a2 1085 2940 7f17 2542 1b09 9b40
00000050: 3e24 cc78 e4ef 92bf 60c3 40cf 50d6 6240
00000060: 3320 fa22 37d8 59c0 7756 f0dc 94d9 7bc0
00000070: 834e 67cc a679 9ac0 69d1 32e6 4ee1 62c0
00000080: 6ad3 51ec 55f2 6e40 c534 63ae d31d 1740
00000090: fe5b e423 6ee5 62c0 c781 9e06 b8fb 6d40
000000a0: 29ea 8d49 4dd0 f1bf 40c8 9352 8b98 b13f
000000b0: 3b36 6c3f 6bd5 2940 f2a6 7d61 548f b33f
000000c0: c036 22be d92d 7a40 5ec8 ec49 571f 5ec0
000000d0: b6dc ebb0 64fd 1240 6f99 4678 d02a 7a40
000000e0: aef2 763c b01c 55c0 fba3 6115 e0dd 2640
000000f0: 287a 3dae 8bcc 81c0 a63c 53b3 020e 30c0
00000100: f3c4 1f45 f246 b13f bc78 7ad8 7471 bcbf
00000110: 1c6c 7d81 f3ce a2bf e5a3 b56e cd5d b1bf
00000120: a2d9 b116 6893 6ac0 dd76 704d b5ce 593f
00000130: 6408 199f 1dea 2c40 664f afcd ace7 9e40
00000140: 36fb 29ce e684 d0bf 51e6 f2f6 a76b 943f
00000150: 7ae6 043f 0ff4 5fc0 651b 9a1b a20c 7ec0
00000160: d391 1440 9ca3 9cc0 f28f df76 10f6 c23f
00000170: 27ef 7713 4ada 7040 3be9 6141 dd4d 1940
00000180: 373a 095d 4391 d13f a1be 5969 5c51 7040
00000190: 69cd 0734 c01d edbf 9e6a 8cf9 0871 b23f
000001a0: 209d 6a16 d911 2c40 0927 cd9c 4119 3a3f
000001b0: 9468 4cba 0786 9b3f c2fd 4895 8060 60c0
000001c0: a951 bae9 e57d 1540 b00c ea67 77a5 b43f
000001d0: 8065 c254 8efa 56c0 6a72 90e4 e65f 2840
000001e0: 37c9 e93d ddce 93bf
