w3.npy (npy, 1336 bytes, 1 tensors)

array f8 [151]
0	0xc0a1ad8a968038ec	-2262.7706794805035
1	0xc082daa224e2df37	-603.3291719173784
2	0xbff2ef7e6ccdaf22	-1.1834701776633172
3	0x3fd71993d03c3432	0.3609361203714939
4	0x3fd0d793fc251f80	0.2631578409532196
5	0xbf9dfb04e2e8e7de	-0.02927787432620465
6	0x40d70a33809ce14b	23592.80472490312
7	0x3fc07fc79c427271	0.12889952783452288
8	0x406bf626c07e974b	223.69223046040347
9	0xc0e34446c5aa2e2a	-39458.21162899987
10	0x3fb2ceae16185d64	0.07346618689949974
11	0x4083877afb7ffbbe	624.9350500105572
12	0xc0849cf9c0739856	-659.6219491034378
13	0xc0b0dcee22db78b0	-4316.930219380345
14	0x40b59901af49d481	5529.006580938702
15	0xc08389e6e6e0de19	-625.2377450530795
16	0xc0a774506403ba2d	-3002.157013050534
17	0xc0a0d3410783d7f7	-2153.6270104600076
18	0xc08387fbe975f17a	-624.9980038847273
19	0x40a80b1fed3866f4	3077.5623567224193
20	0xc0a38e4e883ad03a	-2503.1533831004317
21	0x3fc0b853360a4e36	0.13062515391048785
22	0x409db242d34d6d99	1900.5652591798919
23	0x3fb02bb4ef637b68	0.0631669125027493
24	0xbfbf9221b12f2ec4	-0.12332354141033891
25	0xc0cb0b02d9ade73c	-13846.022268045337
26	0x40ab8f39ab7e0cf3	3527.612636508065
27	0xbfc35b50186d1a81	-0.15122414772686812
28	0xc0c1fa43d9bf3105	-9204.530082606254
29	0x40a64bc55f0ab269	2853.8854907362734
30	0xc08387123122f240	-624.8838827829532
31	0xc09d5e5fa371ae5b	-1879.5933969271343
32	0x3ff1ad88dc4accc3	1.104866848484378
33	0xbfaf8d164c740106	-0.06162328418031575
34	0x3f58303d4cef200a	0.0014763449323584887
35	0xbfcbf5eccdeeaa38	-0.21844253592765184
36	0x40cb81703fd58b70	14082.876948063931
37	0xbfa1cf9568668e3c	-0.034786862367834875
38	0x4049b53c21424de2	51.41589751946937
39	0xc0e1c3326fa58898	-36377.576128737244
40	0xbfc867de923ac305	-0.1906698431025903
41	0x3fb110a05401be33	0.06665994692752335
42	0xc09645457daefac8	-1425.3178622570576
43	0xc0ac00512f269b11	-3584.1585628570833
44	0x40b8c7bab31dc38e	6343.729295597308
45	0x3fda482eb1ae0936	0.4106556639818736
46	0xc0b2114b30697415	-4625.29370745739
47	0xc0b0b4c96a49b93a	-4276.786778075906
48	0x3fcc014190677ed7	0.21878833342542833
49	0x40a4c5c6c6c60659	2658.888235271716
50	0xc0b42993f44b4186	-5161.5779463801355
51	0x3fc5972f04aedc66	0.16867625931419922
52	0x4097258d138443e2	1481.3877697626526
53	0xbf81f7908283d428	-0.008772973044395796
54	0x3fbeebbdf5435b2f	0.12078463781231784
55	0xc09071d17ae66002	-1052.4545703884219
56	0x40bfcdd0b81e4009	8141.815309420236
57	0x3fcc7adcc793a7b3	0.22249946351013036
58	0x40be4d897b3c740f	7757.537036684355
59	0x40b7689fa96332cf	5992.623678398041
60	0xbfaee948ad756364	-0.06037356488622583
61	0xc09d612fdfab40fe	-1880.2967516668718
62	0xbfd7bebe6068ad4e	-0.37101706900530906
63	0xbfe09a7d3c1c7a7f	-0.5188585447356927
64	0xbfaa4f75acf161cf	-0.05138747917289132
65	0x3fb495630cd45f49	0.08040446341726439
66	0xc0d172764114b675	-17865.847722223454
67	0x3f6eb8ec9c67d086	0.003750288134364568
68	0x408d254ed7496c83	932.6634965645065
69	0x40e0f01c1605a0ec	34688.8776882308
70	0xbfd1d8e7e5d654cd	-0.2788638824943746
71	0xbf9214eefcd8b9b7	-0.017657980139284848
72	0xc09468490c3f2705	-1306.0713357799116
73	0x40ada102934f685e	3792.5050301375295
74	0xc0af32d8d5062d1f	-3993.423500245102
75	0xbfc4763b8c39ea82	-0.1598581728647624
76	0xc073729e43449aba	-311.1636383705005
77	0xc09af2d8025eaea9	-1724.7109465402702
78	0xbfd1a32f3b3015d3	-0.2755849912649328
79	0xc0a2bedfb1bc4a85	-2399.436902889344
80	0xc0a1efd267462421	-2295.9109441680052
81	0xbfd012537f5c4ea2	-0.2511185401683439
82	0xc09edf58153cc537	-1975.8360185141917
83	0xbf58ade5a245e4e4	-0.001506304027399979
84	0xbfa3b606bec76fee	-0.03849812582822652
85	0x40ce41db131ead23	15491.711520990886
86	0x40b21f00d08c8126	4639.003182202845
87	0xbfc1a97a14b170df	-0.13798452387243906
88	0x40d23251e0517e8d	18633.279316304765
89	0x40a67e09632b3cb5	2879.0183347236257
90	0x3f90bc1329752202	0.016342448621147206
91	0xc09d612fdfa98698	-1880.2967516411209
92	0x3fa9b58db225f980	0.05021326827680905
93	0x3fd0dcf06b4f1e8c	0.2634850547733343
94	0x3f87bc59147634e2	0.011589713990157017
95	0xbf83ad61ed7f98d1	-0.009608044681908375
96	0x408e6e6e04441a47	973.8037190742988
97	0xbf268bc4722655cf	-0.0001720120718117627
98	0x409f06c2c2dc9930	1985.6901964634417
99	0x40c5985e45a55ff5	11056.736500427107
100	0x3fdbed926550ae4d	0.43637523550089413
101	0x3f5f520f25ce8324	0.001911654274614879
102	0xc089dc6df00421cb	-827.5536804507077
103	0x408ad13dd56cd61c	858.1551922324029
104	0xc0a203530570bff7	-2305.6621508821804
105	0xbfa786fb6d2fad3d	-0.04595170696105775
106	0x40a762a880ea29fa	2993.32910854113
107	0x40aaa96bee268968	3412.710801319383
108	0x3fbd259d825e39b9	0.11385521347822349
109	0xc082de5ae14ed3e7	-603.7943750532548
110	0x40b07d7b469785b1	4221.481545896663
111	0x3fbbd375a21f7d63	0.10869536598283029
112	0xc082461bf29d5482	-584.7636463443198
113	0x3f36bdd667f9f048	0.0003470085575612053
114	0x3f775f1543215fb1	0.005705912643030262
115	0xc0c0505d2231aea7	-8352.72760602024
116	0xc0ba4f6c6e10f914	-6735.423554478464
117	0x3fa92965cc12a59a	0.04914396396754768
118	0xc0cdc3df2e99039d	-15239.743609549298
119	0xc0b2825320e4fd9c	-4738.324720680157
120	0xbf621e4cc06def43	-0.002211713700885827
121	0xc09d612fdfa95eaa	-1880.2967516387966
122	0xbf62910c5e4c5bb9	-0.002266430050791493
123	0xbfa13d6978d39aff	-0.0336716613763226
124	0xbf468bad9cc45f76	-0.0006880376545579231
125	0xbf364fbe836b48a8	-0.0003404464836595047
126	0x40d0c9172c4e5fd3	17188.362079232767
127	0x3ec7abc9e32cf751	2.8218089708477745e-06
128	0x4094942e01fb6f10	1317.0449294363534
129	0xc0eb322a37afebba	-55697.319297752765
130	0xbfbd3f376f8c1248	-0.1142458579379958
131	0xbf1269db052f71aa	-7.024192136335117e-05
132	0xc083f0a27e740ffd	-638.0793427531604
133	0xc0b577f795228c74	-5495.96711936883
134	0x40bff595183d06b9	8181.582401098386
135	0x3f97dfcbbbe2ff91	0.023314650862402756
136	0x40767242558cb448	359.141194867731
137	0x40a5e7696bcd1aee	2803.705900582826
138	0xbf891a11c1df7f47	-0.012256754616771238
139	0x40abb675a6958595	3547.229786560589
140	0x40ad535103b48dd2	3753.6582313941117
141	0xbf8a5445865f37bf	-0.012856047785955725
142	0x40a37e83de541b46	2495.257555607156
143	0xbee5526ca77762b7	-1.0167107787604835e-05
144	0xbf40bbf2647ec045	-0.0005106862599770853
145	0xc0c9124f8b4fa95a	-12836.621438939754
146	0xc0bbe6a7eee9aab1	-7142.655989269421
147	0xbf7a57cab09295f6	-0.00643138099363715
148	0xc0d19dd303799ebd	-18039.297087101953
149	0xc0b1552f80cfc927	-4437.185559259996
150	0x3f17e1a928fb0b70	9.110064479060458e-05
